Assets/Models/ZombieBehavior-500062.onnx (onnx, 75098 bytes, 7 tensors)

network_body._body_endoder.seq_layers.0.weight f4 [128, 6]
000000 d9 87 eb be 63 95 56 bd e5 6c 45 be bb 08 44 3e
       -0.4600208 -0.05238856 -0.19279821 0.19143955
000010 4a 52 23 bf b8 b2 4c 3f 6e f7 da be 41 60 01 3d
       -0.6379744 0.79960203 -0.427669 0.031585936
000020 a6 56 04 3e de 6c ac bd d3 16 36 be b1 ea 2f bf
       0.12923679 -0.08419202 -0.17782144 -0.68717486
000030 72 08 e2 bb 57 b0 01 3f 98 b8 44 3e 60 0d 61 3e
       -0.0068979794 0.506597 0.19211042 0.21977758
000040 11 dc c5 be 0d f2 1e 3e 1f a2 1c 3e 17 8e 3b bf
       -0.3864446 0.15522023 0.1529622 -0.73263687
000050 8a c4 cb be 86 83 25 bf f8 d0 88 bf bf 7b 2a be
       -0.39798385 -0.64653814 -1.0688772 -0.16648768
000060 d6 8d 7e 3e d4 48 55 3e c8 86 d6 3e 9b 8d a7 3e
       0.24858794 0.20828563 0.41899705 0.32725224
000070 fb e3 08 3e 06 27 24 3c ab 4e 3c be ab 51 60 bf
       0.13368218 0.01001907 -0.18389384 -0.87624615
000080 35 dc a9 3d bc 27 f7 be 6b b5 01 be 59 90 8f 3e
       0.08293954 -0.48272502 -0.12666862 0.28039816
000090 1b 49 48 be 29 89 a7 3e da c9 62 3d 0f c7 a9 3d
       -0.19559138 0.32721832 0.055368282 0.082899205
0000a0 0e 67 8d 3e f0 b1 20 3e cd 31 e1 be e2 ca 9c be
       0.27617687 0.15692878 -0.43983307 -0.30623537
0000b0 51 bc 84 3e f5 9a 68 3e 16 17 ab be 75 fa f6 3b
       0.25924924 0.22715361 -0.3341605 0.007537181
0000c0 51 20 23 bf 54 d9 27 be 59 4c 08 3e 0e ee 52 bf
       -0.63721186 -0.16391498 0.13310374 -0.8239449
0000d0 3d d5 db 3e 3e c3 cd bd 76 7c 8c 3e 96 72 7e be
       0.42936125 -0.10047005 0.27438706 -0.24848399
0000e0 a8 34 04 be ed df 9e 3e 2a 80 90 bf a5 80 30 bf
       -0.12910712 0.31030217 -1.1289113 -0.68946296
0000f0 2e 4b f0 bd 98 b2 33 3f 40 95 b2 3e f2 24 cc bd
       -0.117330894 0.7019439 0.34879494 -0.09967984
000100 6e e4 17 3f f6 89 74 3e fb 0d 13 be f5 73 0f bf
       0.5933293 0.23880753 -0.14360802 -0.5603631
000110 0a d6 93 3e aa 55 23 be f5 e9 28 be ec 7d bb 3e
       0.28874236 -0.15950647 -0.16495498 0.36619508
000120 c7 b4 12 3f f0 a3 4c bc a6 1e 6d 3e 31 eb b0 be
       0.57307094 -0.012490258 0.23156223 -0.34554437
000130 4e ae 8d 3e c4 dd c8 bd 49 8c c3 3e c0 6b 3d 3e
       0.27672046 -0.098079234 0.38192967 0.18498135
000140 62 49 98 be ce 15 d0 bd e5 63 93 3e 0d ce 2a 3f
       -0.29743487 -0.10160409 0.2878715 0.6672066
000150 35 a7 c1 3b 36 d8 35 3f 2b cd 28 3d c4 29 43 3f
       0.005909825 0.71033037 0.04121129 0.76235604
000160 70 88 aa 3e 96 f7 3a be 6a 91 0a bf 19 33 b3 3e
       0.3330722 -0.18258509 -0.54128134 0.34999922
000170 c5 53 ec 3e 7c 76 30 be 63 77 cc be ef da 4c bf
       0.4615766 -0.17232698 -0.39934835 -0.80021566
000180 7f 4e f4 be db 11 51 bd b1 82 47 bd c0 60 5d 3e
       -0.47716138 -0.05104242 -0.04870862 0.21618938
000190 9d 14 23 3f 5b b1 24 be 63 05 fd 3e 1f 6d 37 3f
       0.6370333 -0.1608328 0.49418172 0.7165088
0001a0 16 a4 9b 3e 8a ab d6 3e a7 08 d2 be 35 35 6d bd
       0.30398625 0.4192775 -0.41022226 -0.05791207
0001b0 30 2d 9f be ae 79 29 bf cf a0 96 3d cb df c8 be
       -0.31089163 -0.66201293 0.073548906 -0.3923324
0001c0 ce 50 d9 3b 62 f0 e7 3e f7 d2 2d bf de 08 81 3d
       0.006631947 0.45300585 -0.6790003 0.063005194
0001d0 fd cb 42 bf c4 ff 81 3e 05 da b6 bd 67 56 f6 be
       -0.7609251 0.25390446 -0.08928303 -0.48112795
0001e0 31 7f 1c be 66 f0 37 3d 15 25 2e 3f f2 b5 0a bf
       -0.15282895 0.044906996 0.6802533 -0.54183877
0001f0 46 5c 23 be 64 93 2d 3e 96 48 24 3d 5a 25 bd 3e
       -0.15953168 0.16950756 0.040108286 0.3694256
000200 a5 89 46 bf f6 e0 c1 be 19 0c 2f bf e2 af 0e be
       -0.7755378 -0.37866944 -0.68377835 -0.13934281
000210 80 9c eb 3e aa 51 09 3d 4d 90 7b 3e ab 22 f9 3e
       0.46017838 0.033525147 0.24566765 0.48659262
000220 7a 7a d8 bd c3 aa 26 bf de ab a6 3e 38 09 e9 3e
       -0.105702356 -0.6510431 0.32553 0.45514846
000230 9b 09 7e be c5 f3 3c be 12 ef 01 bf 74 da 02 bf
       -0.24808352 -0.18452366 -0.5075542 -0.51114583
000240 63 fd c7 bb 65 dc 91 bf 1f 61 bd 3d d8 11 e5 be
       -0.006103204 -1.1395384 0.0924704 -0.44740176
000250 2a e6 d8 be a7 7f 06 3f 5c 98 91 3c a3 53 ce 3e
       -0.423631 0.5253853 0.017772846 0.40298185
000260 a3 cf 44 bf 32 3e 11 bd c5 84 d4 3e 3d d1 0d 3f
       -0.7687933 -0.035459705 0.41507545 0.553974
000270 f3 3a b2 3d 8f 64 de be ff 7c fd bc 41 52 cf 3e
       0.0870265 -0.43436095 -0.030943392 0.40492442
000280 a0 08 18 3f 59 34 ac 3d 50 30 a7 3e 7b 3f f5 be
       0.5938816 0.08408422 0.32654047 -0.47899994
000290 b4 e1 98 be 7c 62 42 3f 91 c2 96 be 5f ae e0 3e
       -0.29859698 0.75931525 -0.29445317 0.43883035
0002a0 08 29 d8 3c 0e 23 3a 3e e3 33 43 3f c2 2c 07 3f
       0.026386753 0.18177435 0.7625105 0.5280267
0002b0 68 7b 0a 3e e3 7b 2d 3e 3d ad df 3e f4 0f e0 3e
       0.13523638 0.1694179 0.43686858 0.4376217
0002c0 58 61 04 3f 2d c3 11 3f 8c 20 94 bd c0 4f 0b 3f
       0.51711035 0.5693844 -0.0723277 0.54418564
0002d0 49 39 30 be 5b f5 60 3e 08 59 2e bb 3f 03 59 3d
       -0.17209353 0.21968596 -0.002660336 0.05298161
0002e0 1a c5 e2 bd 79 ac a5 bf 29 13 42 3e 9a b1 90 3e
       -0.110727504 -1.294326 0.18952622 0.282605
0002f0 b2 8a 6e 3e 5d da 29 bf 91 f9 86 be 68 8d fa 3d
       0.23295096 -0.6634882 -0.2636228 0.12234002
000300 5f aa 11 3d 8d 45 e3 3e 32 e9 c8 3c 6b 9b 06 3f
       0.03556287 0.44389 0.024525259 0.525809
000310 27 9e 95 3c b3 ca 9d 3e 87 16 2c 3f 70 c2 0a 3f
       0.01826389 0.3081871 0.67221874 0.5420294
000320 bd bf 8d be 29 3f 51 3e c0 41 2e 3e bc 02 fe 3d
       -0.27685347 0.2043425 0.17017269 0.12402865
000330 90 e6 08 3f 7e b9 fd be a6 84 e4 3e f9 37 69 3e
       0.5347681 -0.49555582 0.44632453 0.22775258
000340 65 4e 1c 3d ee 39 b7 3d 61 3b 84 3f e2 1e db bd
       0.0381607 0.08946596 1.0330621 -0.1069925
000350 a1 3a 9a 3d bf 40 36 bf bc 83 d4 bc 99 76 4a be
       0.07530714 -0.71192545 -0.025941722 -0.19771804
000360 15 5c 9b bd 8f 6b 55 be d3 74 b6 bc ef 45 99 3e
       -0.07585923 -0.20841812 -0.022272503 0.29936168
000370 83 37 83 3e e0 11 80 be 82 1a c4 be 4d 69 4f 3d
       0.2562829 -0.25013638 -0.38301474 0.050637532
000380 38 98 8e 3d 57 65 06 bf 0e 09 46 bf 74 3b ff 3e
       0.06962627 -0.5249838 -0.77357566 0.49850047
000390 69 d5 3b be 79 51 5d 3e ae 3d d1 3d 94 c8 05 3f
       -0.18343128 0.2161311 0.102168426 0.5225918
0003a0 81 fa 26 3f 66 66 e2 3e 6f a7 a9 be 53 53 9a 3e
       0.6522599 0.4421875 -0.33135554 0.30141696
0003b0 cf c0 e9 3e 7c 41 89 bf af 8b a2 be 1a 42 e7 3c
       0.45654914 -1.0723109 -0.31747195 0.028229762
0003c0 e9 e5 91 be 7c 7e c8 3e 7e 0a b4 3b 66 00 98 3e
       -0.2849572 0.39159 0.005494415 0.29687804
0003d0 92 6d ed 3e 4a 70 a8 3e 8d c4 9a be a6 d1 51 be
       0.46372658 0.3289817 -0.3022808 -0.20490131
0003e0 cf 1f 10 bf 86 63 5b be d6 b6 f2 3e 31 ab 27 be
       -0.56298536 -0.21424684 0.47405118 -0.16373898
0003f0 a5 16 0a be 0f 91 10 3f 42 6a b2 be 07 e6 61 3e
       -0.134852 0.5647134 -0.34846693 0.22060405

network_body._body_endoder.seq_layers.0.bias f4 [128]
000000 70 1b 61 3b 28 b1 7a bb 72 4f 12 bd 5c fd 33 3d
       0.003434863 -0.0038252566 -0.035720296 0.043942794
000010 fd 80 52 bd b2 79 b2 3d 59 2c 37 3d ad 2f 95 bd
       -0.051392544 0.08714618 0.044720028 -0.07284484
000020 97 05 7b 3d 4e 1c 5c bd ec ca 6e 3d 27 b7 bc 3c
       0.061284628 -0.05373793 0.05829899 0.023036553
000030 18 e8 5f 3d f7 a5 c2 bb b3 51 8a 3c cf c7 9a 3d
       0.0546647 -0.0059401947 0.01688466 0.07557642
000040 92 ba 4e 3d 57 ed 08 3d 16 d3 9f 3d 35 2e 38 bc
       0.050470896 0.03342947 0.07803933 -0.011241485
000050 94 d8 8a 3d 63 0f 71 bd 0f 58 7e 3d 65 d7 d6 bc
       0.0677959 -0.058852565 0.062095698 -0.026225755
000060 75 b1 8f 3d 01 b8 4d 3d e9 57 a2 bd ee 14 38 bd
       0.07016269 0.050224308 -0.07926924 -0.044941835
000070 e8 f8 80 3d 8a e0 aa 3d ba 52 15 3d a4 be 96 3d
       0.06297475 0.08343609 0.036455847 0.073605806
000080 fe 70 10 bb 74 64 26 3d 34 95 28 3d ac 40 2f 3d
       -0.0022040005 0.040623143 0.041157916 0.042786285
000090 71 8e 00 bd 7d 0c d5 3c 51 21 a1 3c 97 bf 4c 3d
       -0.031385843 0.026006931 0.019669207 0.0499874
0000a0 1c 30 ad 3c 42 42 24 3d 2c 06 14 3c 2e 12 c7 bc
       0.021141104 0.04010225 0.009034675 -0.024300661
0000b0 5a fd 75 3d 93 ac 2b 3d 09 b7 6f 3c d8 a0 68 bc
       0.060056068 0.041912626 0.014631041 -0.014198504
0000c0 c9 e1 33 3d 66 68 1a bd e4 84 83 3d e0 52 2d bc
       0.043916497 -0.03769722 0.06421831 -0.010578841
0000d0 18 68 36 3d f9 5f 92 bc 03 e9 a1 bd 1e 7b 8f bb
       0.044532865 -0.017868029 -0.079057716 -0.0043786904
0000e0 79 ba 0c 3d e6 a2 54 3d 4d 7a 31 3d cf 2f 00 3c
       0.03435752 0.051913165 0.043329526 0.007823898
0000f0 d5 52 12 bd 9e c5 59 3d a5 ff b5 3c 49 04 1f 3d
       -0.035723526 0.053166978 0.022216627 0.038822446
000100 e7 86 85 bc 5e d7 96 bd b5 9d 8a 3d 64 ec e5 3c
       -0.016299678 -0.07365297 0.067683615 0.028066821
000110 fa f5 3c bd d2 83 78 3d e2 55 74 bb ad ea 06 bd
       -0.04613302 0.06067259 -0.0037282635 -0.032938648
000120 46 42 41 3d 2e e3 5d bd 7a 3e 86 3d af fd 73 3d
       0.047182344 -0.054171734 0.06554885 0.059568103
000130 0f 7f 40 3d 4f 22 57 bc 8b a3 a9 bc a6 7d 6f 3d
       0.046996173 -0.013130738 -0.020707866 0.058469437
000140 18 4e 3c 3d e8 fb 69 3d 96 72 f3 3c f0 6b 05 bc
       0.045972914 0.057125002 0.029717725 -0.00814341
000150 c3 f3 ef bc 11 4d 4c 3d be aa fe 3c 20 18 21 3c
       -0.02929104 0.049878184 0.031087276 0.009832412
000160 33 32 88 3d 5b 20 89 3d d2 a9 76 bd 92 da 52 3d
       0.066502 0.066956244 -0.060220547 0.051477976
000170 6a 89 53 3d b9 26 ac 3d 4f de fa 3c 90 da 83 3d
       0.05164472 0.08405823 0.030623583 0.06438172
000180 c6 68 8c 3a c3 e9 c3 bd 37 98 1d bc 7b 4f 09 3c
       0.0010712377 -0.09566071 -0.00961881 0.008380766
000190 33 a4 29 3b 76 58 6f 3d 45 79 9a 3d 8c 6d 20 bb
       0.0025885224 0.058433972 0.075426616 -0.0024479358
0001a0 5f cf f9 3c 39 17 be 3c 3d 7d 5d 3d 63 59 ea 3c
       0.03049439 0.023204433 0.054074515 0.028607076
0001b0 a1 b1 51 3d 3e b2 55 bd 5f d9 48 3d ca 7a 84 3b
       0.05119479 -0.052171938 0.049035426 0.004042958
0001c0 68 31 65 3d d6 72 85 bd 49 f5 c6 3c 00 92 a6 3d
       0.05595532 -0.06516044 0.024286883 0.08133316
0001d0 50 f7 01 3d 51 7b 97 3d e9 2a 1b 3c 68 39 63 3d
       0.031729996 0.073965676 0.00947068 0.05547467
0001e0 9f b1 6f 3d 5b 0a 80 3d 82 99 99 bc 34 16 94 3d
       0.058519002 0.06251975 -0.018749956 0.072307974
0001f0 ab 84 90 3d 0b 03 13 bc 22 a7 54 3d 01 7a 01 bd
       0.070565544 -0.0089728935 0.051917203 -0.031610493

network_body._body_endoder.seq_layers.2.weight f4 [128, 128]
000000 15 eb b3 bd 6f 86 80 3e 3e 6e 91 3d 5e ab 17 bd
       -0.08785073 0.25102565 0.07101105 -0.037028663
000010 bd 3e 21 bb 86 ba af bd f2 47 b0 bc da 1c 74 be
       -0.0024604045 -0.085804984 -0.021518681 -0.23839131
000020 6f 22 89 3d cb 8c 38 be dc 14 4a 3e 3d 40 e5 bd
       0.06696021 -0.18022458 0.1973452 -0.11193893
000030 9d 7d 87 3d f6 83 68 be 8f b0 1d be 3d 60 1a 3d
       0.06615756 -0.22706589 -0.15399383 0.037689436
000040 e1 c0 89 bc 61 e8 9b bd 8c d4 60 3c ef ba ec 3d
       -0.016815605 -0.07612682 0.01372255 0.11559092
000050 93 07 2f 3e 19 57 1f bd 85 84 dd bc cb e8 da 3d
       0.17092733 -0.038901422 -0.02704073 0.10688933
000060 e9 a0 fd bd 21 cd 10 3c 4e 1d 3a bd c4 02 13 bc
       -0.12384207 0.008837969 -0.045438103 -0.008972827
000070 46 c3 0d bd f0 2a 8c bd c2 0a 5f 3e ce d4 0e 3e
       -0.034610055 -0.06844127 0.21781448 0.13948366
000080 cc 3b ef bd d5 49 f6 bd 32 f3 00 bd c5 04 7f 3c
       -0.11681327 -0.12025801 -0.03148193 0.015565102
000090 53 9b a6 bd b1 64 93 bd 39 13 cc bb 5f 75 8f 3d
       -0.081350945 -0.0719694 -0.0062278775 0.07004809
0000a0 1d 3b d6 bd 11 e5 b9 3d 60 6a c4 bd 57 2d 51 bd
       -0.10460494 0.09076894 -0.09590602 -0.05106863
0000b0 b9 73 77 3e 72 47 cb 3d 93 25 3b bd 25 e9 cd 3d
       0.24165238 0.099257365 -0.04569013 0.100542344
0000c0 5e e8 82 bd 62 50 86 3d be 3c 0b be 62 8e 16 be
       -0.06391977 0.065583006 -0.1359739 -0.14702752
0000d0 bc af 00 3d e9 de d4 bd ef cf 37 3d f4 e1 07 3e
       0.031417593 -0.10394079 0.044876035 0.13269788
0000e0 cd 26 ab 3d 26 1d 93 3c b2 34 46 3d d3 80 85 3d
       0.0835701 0.017958235 0.048390098 0.06518712
0000f0 00 8f f7 3b ff 2a b5 bd fb 79 50 3e 5a 3c 2d 3e
       0.0075548887 -0.088460915 0.20359032 0.16917554
000100 2b dc 9f bd 74 7e 03 3c cc ad 83 3a 86 ee 01 be
       -0.078056656 0.008025754 0.0010046302 -0.12688646
000110 27 08 d7 bd ae 9a e2 3d 1f 37 50 bb 53 7a 2e 3e
       -0.10499602 0.11064659 -0.0031771136 0.1703885
000120 e7 71 b9 bb e5 af e9 3d 43 08 1f bd d4 da 43 3e
       -0.00565933 0.11410502 -0.03882624 0.19126445
000130 38 27 48 3d 00 5f 37 be 17 55 4a 3d 3d 17 3c 3d
       0.048865527 -0.17907333 0.049397554 0.0459206
000140 8b e2 62 bd 07 26 bf bd 9b b2 82 bc b1 b6 0a 3d
       -0.05539183 -0.09333425 -0.015954306 0.033865634
000150 84 68 10 be 0d a4 51 3e 99 47 09 3e fe 43 3d bb
       -0.1410237 0.20472737 0.13406219 -0.0028879638
000160 27 c1 99 bc fd f9 39 3e f0 5b 52 bc 39 b6 20 bd
       -0.01876886 0.18161769 -0.012839302 -0.03923628
000170 3b 24 90 bd bd d4 61 3d 1a d5 c4 3c 3c 17 59 3d
       -0.070381604 0.055134524 0.024027396 0.053000674
000180 ff bd be 3d ee fe 9b bd e7 48 fd bb 87 c1 2a 3e
       0.09313583 -0.07616983 -0.007729638 0.16675387
000190 53 9d 4c 3d 19 59 f9 3d c1 68 cf 3d ce ee 15 be
       0.049954724 0.12175197 0.10127402 -0.14641878
0001a0 c9 b0 18 bc c6 6d 94 bd 42 07 2b bd 15 26 c9 bd
       -0.009319493 -0.072475 -0.04175497 -0.09821717
0001b0 1e d2 bf bd 64 82 94 bc 42 6f 3d 3d 59 d2 cf bd
       -0.093662485 -0.018128581 0.04624868 -0.101475425
0001c0 06 e4 ad bd f7 1a 49 3b c4 34 42 be c1 6e 9f 3c
       -0.08490758 0.0030686238 -0.18965441 0.019461991
0001d0 a0 07 9f bc 93 1a 9d 3d f4 97 31 bd 0e 9e 9a 3d
       -0.019412816 0.07671084 -0.043357804 0.07549678
0001e0 ba f0 0c 3e c5 c1 a6 bc 7e 69 39 3d b3 67 79 bd
       0.13763705 -0.020356068 0.04526662 -0.06088991
0001f0 f0 f2 ca bd 2b 44 96 3c 52 90 69 bd 06 06 00 3e
       -0.09909618 0.018343052 -0.0570224 0.12502298
000200 3b d5 9a 3d bb d4 90 bc 58 6a ad bd 01 f6 e2 bc
       0.07560202 -0.017679563 -0.08467549 -0.027705194
000210 dd 13 39 bd 5d cf ba 3d 1c 88 6b bc cf 6f 0f bd
       -0.04518496 0.09121583 -0.014375713 -0.03501874
000220 2e bf 9e 3c 66 d8 4f be af a5 c2 bb 9b 57 31 3d
       0.019378271 -0.20297393 -0.005940161 0.043296438
000230 9b dd 62 bd ad 9e e8 3d dd 32 ba bd cc 21 d0 bc
       -0.05538712 0.1135839 -0.09091733 -0.02540674
000240 f3 a1 28 bc b2 da 80 bd 15 a2 f9 3d 8f 14 c2 3d
       -0.010292518 -0.06291713 0.12189118 0.094765775
000250 ca bf 9c 3c 73 d6 82 bd 20 77 9f 3d ec 12 92 3c
       0.01913442 -0.06388559 0.07786393 0.017831288
000260 eb 3d 4b 3d 6c e7 85 3d 6c 35 4c 3d 8e 87 40 3e
       0.049619596 0.06538281 0.049855635 0.1880171
000270 7e b6 f3 3d 92 4a b0 3e 90 61 90 bd 9f 9d 70 3c
       0.11900042 0.34431893 -0.070498586 0.014686017
000280 42 33 74 3d 43 23 17 3e 1e fb 26 3e 23 85 d8 bd
       0.059619196 0.14759545 0.16306731 -0.10572269
000290 91 ec b5 3d 93 4f e3 3d f0 78 af 3c 05 c0 bd bd
       0.08883012 0.11099162 0.021419972 -0.092651404
0002a0 63 86 89 3d 61 95 4d bc 5e 5e da bc e6 ba 9f bd
       0.06715085 -0.012547822 -0.026656326 -0.0779932
0002b0 9b 16 83 3d 49 b5 d0 3d 33 e3 d0 3d c3 1f 3f bc
       0.06400796 0.101908274 0.10199585 -0.011665287
0002c0 e6 fd 84 3c c8 2f c6 bc f0 90 09 be de 7d 81 3d
       0.01623435 -0.024192706 -0.13434196 0.063228354
0002d0 bc 1f 94 ba 38 33 e3 bc 5e d4 9d bd 62 88 2e be
       -0.0011300961 -0.027734384 -0.077065215 -0.17044213
0002e0 d0 2f 01 3e 52 c4 22 be 6a c1 05 3e 4f 73 7d 3c
       0.12615895 -0.15895203 0.13062063 0.015469386
0002f0 6e 60 54 3d a1 ba 8a 3d a9 09 6d be cd 5e d2 3d
       0.051849775 0.06773878 -0.23148216 0.10271988
000300 2f 9b 79 bd 53 21 47 3d 06 f2 94 bd 0c 01 c2 bc
       -0.06093901 0.048615765 -0.07272725 -0.02368214
000310 75 21 4a be 25 3b 2b 3c d9 fe 6e bd 62 ce 34 ba
       -0.19739325 0.010451113 -0.05834851 -0.00068972085
000320 f5 ec ce bd f4 4a 9b 3c bf be a3 bc 76 ce 85 3e
       -0.1010379 0.018956639 -0.019988416 0.2613408
000330 19 7e af bd 78 04 15 3e a8 85 8c 3d 3f 20 73 3d
       -0.08568973 0.14552486 0.068614304 0.059356924
000340 ff 5a 4e 3d 69 45 05 3e eb fc f0 3d 3d 6c e3 bd
       0.05037975 0.13014759 0.1176699 -0.11104629
000350 c0 47 15 3e d6 2f 97 bd 3b 15 3a be 45 11 2e 3c
       0.14578152 -0.07382171 -0.18172161 0.010624235
000360 cc 71 5e 3e 9e e4 13 be 57 7b 3a bc 86 d6 f4 3d
       0.21723098 -0.1444268 -0.011381946 0.119549796
000370 48 f9 37 be 87 09 2d be f6 f9 bb 3d cc aa 83 3d
       -0.17966187 -0.16898166 0.09178536 0.06429061
000380 ea 74 2c bd b6 ab d7 3a f2 24 5f 3d f7 f9 37 bc
       -0.042103685 0.0016454372 0.054478593 -0.01122903
000390 59 23 08 3e e6 6d b6 bd ba 59 1c be c9 5f 87 be
       0.13294734 -0.0890768 -0.15268603 -0.26440266
0003a0 3c ba 6b bd fd 80 02 be f3 98 91 bd e6 d0 08 3e
       -0.057550654 -0.12744518 -0.07109251 0.13360938
0003b0 82 5a 20 be ac 03 9e bc 6f 07 f3 bc 7b eb 9a 3d
       -0.15659526 -0.01928886 -0.02966663 0.075644456
0003c0 9b 98 90 bd b4 63 6b bc 75 e4 67 3e ed 85 c4 bc
       -0.07060357 -0.014367033 0.22645743 -0.023989642
0003d0 c2 83 ef 3c a5 a6 90 bd f7 d6 26 3e 07 d2 af bc
       0.029237632 -0.07063035 0.1629294 -0.021462454
0003e0 4f 1a b9 3d 85 7e 6e 3b 1e 3f 5c 3d ce a7 40 3e
       0.09038221 0.003639133 0.05377113 0.18814012
0003f0 04 75 db bd df 88 01 bd 8c 38 dd bd e6 e7 69 3e
       -0.10715678 -0.03162467 -0.10801801 0.22842368

network_body._body_endoder.seq_layers.2.bias f4 [128]
000000 bf 9c 13 3d 14 6f ba 3c 98 fa 81 3d ad 7f fd 3c
       0.036038157 0.022758044 0.06346625 0.03094467
000010 12 d6 e6 3c 55 5f a5 3d 48 e2 01 bd 4d 4c b2 3c
       0.028178249 0.08074824 -0.03170994 0.021764899
000020 5b af 0d bc 25 a6 f0 bc ea 49 5d bb 87 94 99 bc
       -0.008647765 -0.029376099 -0.003376598 -0.018747581
000030 2d 31 80 3d ee 8a 5b 3c f2 9c 65 3d dc f1 55 3d
       0.062593795 0.013399823 0.056057878 0.05223261
000040 b6 86 ed 3b 3a 1b 26 3d c1 28 5b bd d0 22 4e bb
       0.007248725 0.04055331 -0.053505663 -0.0031453855
000050 a5 49 47 3d 57 0c 61 3d 0a 4d 22 3d d7 ff 67 3d
       0.048654217 0.05494341 0.03962425 0.056640472
000060 b1 d5 00 bd 54 3c 54 3d 58 22 06 bd ac cd 16 3d
       -0.031453792 0.051815346 -0.032747597 0.036817238
000070 c9 66 0e bd 63 e4 d1 3b c2 94 44 3d 59 ce c5 b9
       -0.034765992 0.0064053996 0.04799343 -0.0003772851
000080 11 cd 20 bd 3f 82 4a bc 11 60 31 bd b6 af 9f 3d
       -0.039258067 -0.012360155 -0.043304507 0.07797186
000090 3b 25 1a bd f0 92 67 3d 0a 84 25 3d a2 70 93 3d
       -0.037633162 0.056536615 0.040409125 0.071992174
0000a0 a1 c6 9b 3d b6 cd 84 3d 44 77 36 bd f3 6b 85 bd
       0.07606245 0.06484549 -0.044547334 -0.0651473
0000b0 c5 79 13 3d 74 d2 a4 3d 20 3e 55 3c 24 90 73 3d
       0.0360048 0.08047953 0.0130153 0.059463635
0000c0 00 19 02 bd 33 56 18 3d 4d 5a a3 3d ab 32 5b b9
       -0.031762123 0.03719158 0.07976208 -0.00020904343
0000d0 ff 05 1b 3d 20 d8 e9 3c 84 fe 10 3d 33 3d 44 3d
       0.037847515 0.02854544 0.035398975 0.047909927
0000e0 f7 d2 c3 bc 40 9b 19 3d f9 0f 80 bd bf 8c 07 bd
       -0.023904307 0.037501574 -0.062530465 -0.03309321
0000f0 35 d3 0e bd 98 4c 90 3d f8 4b 66 3d b7 59 75 3d
       -0.03486939 0.07045859 0.056224793 0.059900012
000100 42 66 5a 3d ac 46 53 3c 41 54 73 3d 9d 48 9e 3d
       0.053320177 0.012895267 0.059406523 0.07728694
000110 da 59 59 3d a1 3a 43 3d 59 86 50 bd f2 9c 1a 3d
       0.053064205 0.047663335 -0.050909374 0.03774733
000120 5e f6 98 bc 0c 3e f8 3c 13 02 0c 3d fd 35 63 3d
       -0.018672165 0.030303024 0.034181666 0.05547141
000130 8e b4 15 3d 9a 85 d9 bc b0 5b 7a 3d 57 e5 5a bd
       0.036549143 -0.026552964 0.061122596 -0.05344137
000140 1c f9 6d 3d 2f 30 9a 3b ec f9 74 3d f7 5a 07 bd
       0.058098897 0.004705451 0.059808657 -0.033045735
000150 a8 19 6f 3d 21 c9 05 3d 12 a6 6b bd 12 f1 55 bd
       0.058374077 0.032662515 -0.057531424 -0.052231856
000160 0d 9f 2e 3d 28 6f 06 3d 0b 63 a8 3b 8b f3 62 3d
       0.04263215 0.03282085 0.00513876 0.055408042
000170 d1 28 ae bb bb 80 71 3c 74 c5 52 3c e9 3d 8d 3d
       -0.0053149243 0.014740164 0.012864459 0.06896574
000180 8f 62 80 3d d0 64 6f 3d 07 33 37 3c 8f 8b cf bb
       0.062687986 0.05844575 0.011181599 -0.0063337754
000190 9c 86 22 bd d6 f5 62 bd 26 ee 2f 3d dc fb e1 bc
       -0.039679155 -0.05541023 0.042951725 -0.027585916
0001a0 ef 71 31 3d df 42 84 3d 71 77 94 3d 7b 49 4a 3c
       0.043321546 0.06458067 0.07249344 0.012346621
0001b0 cd e5 7d 3d 0b 0d 1a b9 40 a5 48 3d a5 cd 82 3d
       0.061986733 -0.00014691443 0.04898572 0.0638688
0001c0 5a db 7d 3d 5e 25 40 3d 41 6e 9f 3d 38 82 4a 3c
       0.061976768 0.046910636 0.07784701 0.012360148
0001d0 73 6e e0 bb 28 ee d8 3c fc 8a 00 bb 3f a8 5e 3d
       -0.006849104 0.02648075 -0.001961409 0.05435967
0001e0 b6 12 45 bd cf 3f 8b 3d bc e7 a3 3c 79 4a a1 3d
       -0.048113547 0.0679928 0.02000796 0.07875533
0001f0 57 83 9d 3d 1e 91 15 3d 8e 46 72 3d 25 a0 65 38
       0.07691067 0.036515348 0.059149317 5.4747e-05

action_model._continuous_distribution.log_sigma f4 [1, 2]
000000 77 f9 0a be fe f8 e7 bd
       -0.13571726 -0.11326788

action_model._continuous_distribution.mu.weight f4 [2, 128]
000000 85 ad a1 bc 5c e0 38 bd 92 1f 30 3d 6d 8e ec bc
       -0.01973606 -0.04513584 0.042998858 -0.028876508
000010 76 22 19 bc 11 82 b3 3d 60 a3 97 bd d3 66 d5 3c
       -0.009346595 0.087650426 -0.07404208 0.026050007
000020 f3 50 d1 bd a5 0f 8c bd f0 eb 87 bd 9e 39 41 bc
       -0.10220518 -0.068389215 -0.066367984 -0.011793522
000030 17 7f 5c 3d 57 4a d8 bb e2 05 84 3c 4a 76 79 3d
       0.05383214 -0.006600659 0.016116086 0.060903825
000040 a0 04 34 bd b6 a3 fd 3c 50 b7 db bd 8f df df bd
       -0.043949723 0.030961853 -0.107283235 -0.10931312
000050 08 f7 b9 3a b2 88 8c 3d 0e 97 67 3d 59 13 4c 3d
       0.0014188001 0.0686201 0.05654054 0.04982314
000060 c5 02 58 bd 19 45 19 3d d9 c1 b3 bd 7e 54 73 3d
       -0.052737016 0.037419412 -0.08777208 0.05940675
000070 aa 94 da bd be 01 90 bd f9 97 a8 ba 71 80 54 bd
       -0.10672887 -0.07031582 -0.0012862674 -0.051880304
000080 51 2e 10 be 16 58 24 bd 2a f9 f7 bd 4d f3 d7 3d
       -0.14080168 -0.040123068 -0.12108071 0.10544453
000090 f2 d7 a6 bd ba 8c a3 3d f6 71 22 3c 83 55 9e 3d
       -0.08146657 0.07985826 0.009914866 0.07731154
0000a0 93 08 87 3d 6c 1c 88 3d cb a4 09 be 7d fc 91 bd
       0.06593432 0.06646046 -0.1344177 -0.071282364
0000b0 79 6b 9e bc f6 0b 3e 3d d4 f3 c1 bb 47 5d 07 3d
       -0.019338356 0.046398126 -0.005918959 0.03304794
0000c0 34 e0 0b be 8a 9f 25 b8 6e 09 71 3d 54 bf 9b bd
       -0.13659745 -3.9487648e-05 0.058846883 -0.07604852
0000d0 79 5c 7a bc 31 15 22 bd b0 14 dc 3c 21 0b aa 3c
       -0.015280836 -0.03957099 0.026865333 0.02075726
0000e0 e3 be 3e bd 95 3f 89 bd a0 c8 c4 bd 2e c9 f6 bc
       -0.046568763 -0.067015804 -0.09608579 -0.030125227
0000f0 ed 98 f7 bd e9 95 bb bb fe bf 37 3d 44 79 a4 3c
       -0.12089715 -0.005724658 0.044860832 0.020077355
000100 bf 7e 38 3d 92 23 77 bd 66 23 ab 3d 2c 8c 10 3d
       0.04504275 -0.060336657 0.08356361 0.03528993
000110 40 3a eb 3a a5 8e c4 3c 95 50 d3 bd 64 48 5e bb
       0.0017946437 0.0239938 -0.10318104 -0.003391766
000120 40 ce a6 bc 4a 46 2c 3c 7f 03 fb 3b c7 23 49 3d
       -0.02036202 0.010514805 0.007660329 0.049106386
000130 d2 a6 01 bd 18 fb 01 be a0 07 1d 3d 5a aa f5 bd
       -0.031653233 -0.12693441 0.03833735 -0.119953826
000140 9f bd 87 3d 7c bc ad bd 8f 25 3c 3d 50 23 21 be
       0.06627964 -0.08483216 0.045934256 -0.15736127
000150 41 0c 10 3d e9 b7 3a bc d5 01 cb bd 70 3b da bd
       0.035167936 -0.011396387 -0.09912459 -0.10655868
000160 33 11 9a bc 21 c7 92 b9 08 b6 ce bd 06 e2 b0 3c
       -0.01880703 -0.00027995653 -0.100933135 0.021592151
000170 19 8e d3 bd f7 71 b7 bd 28 71 2b 3d 4e 95 43 3d
       -0.10329837 -0.08957284 0.04185596 0.04774981
000180 f4 82 d1 3c 7d 41 0c 3d e3 dc 7f bd 8f 4e b1 bd
       0.025575139 0.034242142 -0.062466513 -0.08657562
000190 4d 48 d3 bd 70 6c 97 bd ba 60 d8 bc 85 29 b9 bd
       -0.10316525 -0.0739373 -0.02641331 -0.09041122
0001a0 f8 72 78 3d de 23 87 3d 95 74 ad 3d e2 16 84 bc
       0.060656518 0.06598638 0.08469502 -0.016124193
0001b0 bf 25 12 3d fe 41 32 bd 00 21 00 bd 7b 8d 86 3d
       0.03568053 -0.043519966 -0.03128147 0.06569954
0001c0 a5 68 29 3d 5e 91 73 3d 12 ff db 3d 24 d7 4c bd
       0.041359562 0.059464805 0.1074201 -0.05000986
0001d0 c6 a6 2c 3c 3f e4 4e bd c0 de 9e bd 9e bb 1b 3d
       0.010537809 -0.05051064 -0.0775733 0.038020723
0001e0 81 20 d3 bd 4a d9 5f 3c 1b 44 e1 bc 0d 3d 91 3d
       -0.10308934 0.013662646 -0.027498296 0.07091723
0001f0 e0 07 19 3d ec 5a 31 bb b6 0c 25 3d 23 9d a2 ba
       0.037361026 -0.002706225 0.040295325 -0.001240645
000200 54 59 08 bd a8 93 9a 3d 0f 2a 97 3d 99 45 0a bd
       -0.033288315 0.075476944 0.07381069 -0.03375778
000210 25 10 8d bd 0d a1 21 3d 54 a6 8a bd 03 16 96 3d
       -0.06887845 0.03946023 -0.06770006 0.07328417
000220 18 cd 8c 3d c7 24 43 bd 91 a2 52 bd d2 08 03 bd
       0.06875056 -0.047642495 -0.051424567 -0.031990834
000230 96 3d 93 ba 05 3c 73 bd 2e 4b de bc 41 c5 e4 bc
       -0.0011233564 -0.05938341 -0.027135458 -0.02792609
000240 cd 06 b4 3d f9 ed 8c 3d ff 66 35 bd d7 63 f9 bd
       0.0879036 0.06881327 -0.044287678 -0.12177246
000250 5c f9 45 3d 14 67 75 3b ad ce 1c bd 94 bd 07 bd
       0.04833351 0.0037445473 -0.03828304 -0.03313978
000260 90 b8 01 bd e2 ca 6f bd 6a 98 00 3d 65 a9 86 3c
       -0.031670153 -0.058543094 0.031395353 0.016438195
000270 11 c3 a9 bd a4 17 81 3d 0d a8 89 3d 79 36 76 bd
       -0.08289159 0.06303337 0.06721506 -0.060110543
000280 6c c8 ac bb 4a c7 3b bd 66 1f a4 3c a1 ca 56 3d
       -0.0052729156 -0.045844354 0.020034503 0.052439336
000290 74 75 9b bd 0c 13 d2 3b 90 c7 9f bd 29 93 82 bb
       -0.07590762 0.006410962 -0.078017354 -0.003984828
0002a0 f4 45 25 3d 71 df 0d 3d ce 16 73 bc 08 24 42 3c
       0.040349916 0.03463692 -0.01483698 0.011849411
0002b0 66 ca 87 bd 33 1d 82 3d d6 54 28 3d 38 12 0a 3d
       -0.06630401 0.063532256 0.04109653 0.03370878
0002c0 f2 ba 30 bd 8b 69 74 bd c5 f8 45 3d 80 69 01 3d
       -0.043147035 -0.059670966 0.04833295 0.031594753
0002d0 a2 7a 83 bd 03 af bf bd ed cc 2b bd 96 41 eb bc
       -0.06419875 -0.09359553 -0.04194348 -0.028717797
0002e0 63 1e 1f 3d a3 9e b1 3d 05 89 bf bc 4a 55 70 bd
       0.03884734 0.08672836 -0.023380766 -0.058675088
0002f0 7c 66 47 bd 69 68 be 3d bc a4 37 bd 04 55 14 3d
       -0.04868172 0.092972584 -0.044834837 0.03621389
000300 43 33 fa 3b 89 2c b6 bd be 70 a5 39 e1 64 2f 3d
       0.0076355054 -0.08895213 0.00031555252 0.042820815
000310 5a 80 31 bd 95 cc 9e bd 7f 4a 36 bd d9 34 0c bd
       -0.043335296 -0.07753865 -0.04450464 -0.034230087
000320 3b 43 12 bd d0 10 bb bd 25 d2 2f bd f5 7a 92 bd
       -0.035708647 -0.09134066 -0.04292502 -0.071523584
000330 3b 7c 98 3d 84 33 1e bd 43 e2 9d 3c d1 47 f0 bb
       0.0744557 -0.038623348 0.019272929 -0.00733278
000340 77 1d fd bc df b4 6e 3d 1e 79 9d 3c 6a db ad ba
       -0.030897839 0.05827796 0.019222792 -0.0013264243
000350 29 17 dd bc 40 12 99 bd 2b d3 2a bd 4a 6e af bc
       -0.026988583 -0.07474184 -0.04170529 -0.021414895
000360 97 5f 20 bd 1f 5b 9a 3d aa 46 63 bd 8b c1 b3 3c
       -0.03915366 0.07536911 -0.055487312 0.021942874
000370 0f ca 95 3d e8 f0 b9 3d 12 05 39 bd 60 96 e3 3b
       0.0731393 0.09079152 -0.04517085 0.0069454163
000380 cb df 6b bd 0e d0 51 bd 5b a8 95 3d f9 20 72 bd
       -0.057586472 -0.051223807 0.07307502 -0.059113476
000390 30 00 84 bd c2 4f da bc df 8a 74 bd 11 92 68 3d
       -0.06445348 -0.02664936 -0.05970275 0.056779925
0003a0 68 91 40 bd 54 d4 2c bd d5 51 33 3d 20 50 84 bd
       -0.04701367 -0.04219468 0.043779213 -0.06460595
0003b0 23 7f 4f bd 1d 01 96 bd 38 cf b7 3d 53 a7 ec 3c
       -0.050658356 -0.07324431 0.08975071 0.02888838
0003c0 4c 84 15 3d e0 81 19 3d 6c 3c b7 3c 34 74 98 bd
       0.03650312 0.037477374 0.022367679 -0.07444039
0003d0 27 8f 47 bd eb e8 c9 3d 45 b0 85 3d a4 c1 29 3d
       -0.048720505 0.09858879 0.06527761 0.041444436
0003e0 db 18 98 bc e2 c9 a8 3d 76 bc 9b bd 59 70 90 3c
       -0.01856654 0.08241631 -0.076043054 0.017631697
0003f0 53 19 4b 3d e8 96 9f bd d3 14 4b 3c cc c9 56 bd
       0.049584698 -0.07792455 0.012395102 -0.052438542

action_model._continuous_distribution.mu.bias f4 [2]
000000 30 e1 86 3d c8 91 9f 3c
       0.0658592 0.019478694
