Assets/Models/ZombieBehavior-200005.onnx (onnx, 75098 bytes, 7 tensors)

network_body._body_endoder.seq_layers.0.weight f4 [128, 6]
-0.4693254 -0.010714931 -0.2064758 0.20071366 -0.6684628 0.7369619 -0.42570183 0.024938174
0.118842304 -0.095184855 -0.1942193 -0.63937163 -0.011138931 0.47642407 0.20432884 0.21245143
-0.3772562 0.113133535 0.12772886 -0.7147123 -0.39251202 -0.643067 -1.0654782 -0.121748626
0.23139454 0.22946914 0.40687278 0.3363792 0.15536676 -0.000662412 -0.18670246 -0.8453528
0.088740975 -0.47373506 -0.15465143 0.27126944 -0.19839332 0.31039584 0.07636388 0.07124766
0.28997087 0.14719677 -0.41464412 -0.26192144 0.23364305 0.21491978 -0.343944 0.016670177
-0.6461858 -0.14893383 0.15213282 -0.8174628 0.43577293 -0.10353836 0.26866364 -0.2042454
-0.12194238 0.3057288 -1.1470983 -0.62432027 -0.13476542 0.7045451 0.36966327 -0.10658419
0.5979587 0.2261407 -0.14484547 -0.53445584 0.29002288 -0.15662596 -0.18277904 0.33097166
0.55021095 -0.017432136 0.22803876 -0.33904737 0.27484748 -0.051944416 0.36948767 0.19086179
-0.28713098 -0.10303063 0.2770267 0.63151115 0.02152938 0.6670233 0.047329545 0.7449096
0.34210968 -0.1832 -0.53883004 0.3385285 0.45462644 -0.18547218 -0.41734788 -0.7666195
-0.46303004 -0.06641945 -0.035454158 0.2033165 0.6408932 -0.15930136 0.487143 0.6825918
0.29764217 0.4023621 -0.4048602 -0.06314765 -0.31245425 -0.6232927 0.072443426 -0.38293776
-0.021952156 0.41108885 -0.64268583 0.04869047 -0.74866223 0.23790571 -0.09205121 -0.4715458
-0.17061196 0.07386179 0.6862457 -0.5260406 -0.16675836 0.14163685 0.068697326 0.35218918
-0.78462654 -0.37850663 -0.6748534 -0.17257267 0.4725161 0.022208126 0.24517606 0.48847908
-0.12238985 -0.6125562 0.31202844 0.44647926 -0.24879494 -0.16467531 -0.520326 -0.4731992
-0.011238602 -1.1158426 0.09578955 -0.4467764 -0.4493578 0.49345097 0.035428014 0.3851305
-0.75014347 -0.046093315 0.41751692 0.5508479 0.077145174 -0.41186547 -0.035005897 0.4049154
0.5969509 0.09210166 0.30094576 -0.4253952 -0.30647075 0.75675124 -0.30821475 0.4039687
-3.417951e-05 0.16676083 0.77237225 0.51785994 0.1422467 0.1609775 0.38889626 0.4288399
0.5320834 0.5537043 -0.0741767 0.51542574 -0.17438081 0.21291244 -0.0013994889 0.049792007
-0.13014539 -1.2458898 0.15731135 0.29998562 0.23657952 -0.66550463 -0.2708192 0.1310043
0.031604007 0.41261572 0.04510586 0.5021603 0.028830128 0.28477275 0.67166275 0.52238226
-0.2827439 0.1865051 0.17752708 0.10701677 0.5090711 -0.46462038 0.44984844 0.22008635
0.027275667 0.05693247 1.0179259 -0.109441236 0.066113725 -0.69272995 -0.025624804 -0.18399845
-0.05371117 -0.19897926 -0.03388592 0.28844264 0.2519578 -0.22620986 -0.37951005 0.057042126
0.07425849 -0.5064599 -0.7856738 0.47091585 -0.19933558 0.21836646 0.11999185 0.5238972
0.6536607 0.4178956 -0.34578067 0.32575566 0.46860155 -1.0733222 -0.315422 0.021971215
-0.30082357 0.37070167 0.03162055 0.29434416 0.4819623 0.32885724 -0.27912426 -0.203398
-0.54968745 -0.22132438 0.48138452 -0.16233608 -0.12481827 0.5428206 -0.32768586 0.1991674
00000000: 6b4b f0be ae8d 2fbc 646e 53be e287 4d3e
00000010: 6120 2bbf 89a9 3c3f 97f5 d9be 244b cc3c
00000020: 9863 f33d 47f0 c2bd 6de1 46be dcad 23bf
00000030: 1080 36bc dbed f33e 943b 513e de8c 593e
00000040: ba27 c1be 8eb2 e73d 5bcb 023e 63f7 36bf
00000050: 56f7 c8be 0aa0 24bf 9761 88bf 5857 f9bd
00000060: b1f2 6c3e f5f9 6a3e a151 d03e e539 ac3e
00000070: 7718 1f3e b8a5 2dba ee2e 3fbe 0b69 58bf
00000080: d4bd b53d 678d f2be f25c 1ebe d4e3 8a3e
00000090: 9e27 4bbe 34ec 9e3e aa64 9c3d 4bea 913d
000000a0: 1077 943e c0ba 163e 3c4c d4be 911a 86be
000000b0: 2040 6f3e ee13 5c3e 6e19 b0be e58f 883c
000000c0: 6f6c 25bf 1c82 18be b5c8 1b3e 3e45 51bf
000000d0: a11d df3e eb0b d4bd 488e 893e b525 51be
000000e0: edbc f9bd 7c88 9c3e 1ed4 92bf 74d3 1fbf
000000f0: f2ff 09be 115d 343f 8144 bd3e d048 dabd
00000100: d213 193f 6d91 673e 5f52 14be 19d2 08bf
00000110: e17d 943e 8e62 20be 6e2a 3bbe 1e75 a93e
00000120: a0da 0c3f d7cd 8ebc fe82 693e 9e97 adbe
00000130: cfb8 8c3e abc3 54bd 7d2d bd3e 4671 433e
00000140: d502 93be b901 d3bd 72d6 8d3e b7aa 213f
00000150: 625e b03c 0ac2 2a3f a0dc 413d 65b2 3e3f
00000160: 0029 af3e c898 3bbe c4f0 09bf 9c53 ad3e
00000170: ccc4 e83e 6bec 3dbe 9fae d5be 2d41 44bf
00000180: 4612 edbe ec06 88bd 6138 11bd 3332 503e
00000190: 9411 243f e51f 23be cf6a f93e 56be 2e3f
000001a0: 8e64 983e 6802 ce3e d649 cfbe 8e53 81bd
000001b0: 01fa 9fbe 1c90 1fbf 385d 943d 6b10 c4be
000001c0: 02d5 b3bc 3d7a d23e 0f87 24bf a96f 473d
000001d0: 54a8 3fbf 8e9d 733e 5885 bcbd 736e f1be
000001e0: e7b4 2ebe da44 973d ccad 2f3f 99aa 06bf
000001f0: b4c2 2abe 4009 113e 2fb1 8c3d 2452 b43e
00000200: 49dd 48bf 9fcb c1be 31c3 2cbf e4b6 30be
00000210: a1ed f13e d1ed b53c 6f0f 7b3e ee19 fa3e
00000220: 88a7 fabd 7cd0 1cbf 31c2 9f3e ee98 e43e
00000230: 1ac4 7ebe a5a0 28be 1634 05bf 2a47 f2be
00000240: 1d22 38bc eed3 8ebf 502d c43d e0bf e4be
00000250: 3a12 e6be 9ba5 fc3e f71c 113d d32f c53e
00000260: 6709 40bf 58cc 3cbd c7c4 d53e 5e04 0d3f
00000270: 4afe 9d3d 08e0 d2be 5862 0fbd 1251 cf3e
00000280: c6d1 183f cc9f bc3d 9015 9a3e 66cd d9be
00000290: bce9 9cbe 73ba 413f 53ce 9dbe fcd4 ce3e
000002a0: f85b 0fb8 5ac3 2a3e 30ba 453f 7892 043f
000002b0: 1ea9 113e 49d7 243e 691d c73e e790 db3e
000002c0: 9e36 083f 91bf 0d3f f4e9 97bd f1f2 033f
000002d0: e290 32be b805 5a3e 0e6f b7ba b4f2 4b3d
000002e0: d544 05be 5179 9fbf 3a16 213e b797 993e
000002f0: e741 723e 835e 2abf d0a8 8abe fe25 063e
00000300: 3473 013d 5e42 d33e ecc0 383d 948d 003f
00000310: 292d ec3c bccd 913e 17f2 2b3f d8ba 053f
00000320: cfc3 90be 31fb 3e3e a9c9 353e 9c2b db3d
00000330: 7c52 023f b9e2 edbe 8952 e63e 515e 613e
00000340: 3871 df3c 0632 693d 654b 823f ba22 e0bd
00000350: a266 873d c056 31bf 1ceb d1bc 176a 3cbe
00000360: 3e00 5cbd 38c1 4bbe f6cb 0abd c1ae 933e
00000370: 9d00 813e 8fa3 67be 244f c2be 01a5 693d
00000380: d614 983d 5ba7 01bf eb21 49bf e21b f13e
00000390: a01e 4cbe 759b 5f3e 49be f53d 201e 063f
000003a0: 4f56 273f 69f6 d53e 2a0a b1be 72c9 a63e
000003b0: 8bec ef3e 9f62 89bf fe7e a1be fafc b33c
000003c0: 8c05 9abe 9ccc bd3e 8d84 013d 47b4 963e
000003d0: c3c3 f63e fa5f a83e 60e9 8ebe 9147 50be
000003e0: 51b8 0cbf dca2 62be 0878 f63e 6e3b 26be
000003f0: b9a0 ffbd 4af6 0a3f 71c6 a7be 8af2 4b3e

network_body._body_endoder.seq_layers.0.bias f4 [128]
-0.01399623 -0.024588298 -0.03818164 0.037108097 -0.027351353 0.07024843 0.045668613 -0.07360122
0.06674313 -0.061612777 0.054327637 0.015166116 0.041799188 -0.017795747 0.008867229 0.0496094
0.046795793 0.022700915 0.062955126 -0.021214435 0.06796235 -0.051872358 0.041817743 -0.035888653
0.056084115 0.038691886 -0.066436864 -0.04227824 0.06193119 0.06928089 0.013526889 0.066338114
-0.014137316 0.032790266 0.035527945 0.037826095 -0.031472124 0.02486941 0.014317913 0.05069767
0.026053496 0.039725285 0.002307099 -0.02441658 0.056962587 0.042877354 0.011268158 -0.02174609
0.053506296 -0.041339457 0.06680099 -0.020673657 0.029839901 -0.030562019 -0.072336994 -0.009945313
0.030598994 0.04158326 0.03963701 -0.0013754857 -0.040854175 0.0537745 0.016529104 0.030297533
-0.016296402 -0.06730954 0.054111052 0.00420223 -0.062033836 0.055745386 -0.015685976 -0.033174038
0.027950585 -0.05373452 0.053817194 0.061157804 0.048845246 -0.019246936 -0.031061286 0.043408893
0.029567244 0.060671974 0.03245147 -0.019765625 -0.03669882 0.03794968 0.021017354 0.0040935446
0.05597963 0.049396355 -0.06284702 0.045832925 0.03517659 0.06319139 0.016932279 0.06800887
-0.012205495 -0.09321273 -0.0087077245 0.0028361517 -0.014263203 0.04786235 0.06019928 -0.013318298
0.00918899 0.017400978 0.05647115 0.02599051 0.051356018 -0.053763278 0.04027465 0.000109496184
0.056558188 -0.07401231 0.007738245 0.06115749 0.017976046 0.058240987 -0.0036142909 0.04402828
0.056555193 0.06566141 -0.025557987 0.060444392 0.058612883 -0.014577859 0.035181697 -0.03492416
00000000: 7250 65bc 666d c9bc 5a64 1cbd a9fe 173d
00000010: f20f e0bc 69de 8f3d 030f 3b3d 3dbc 96bd
00000020: 9fb0 883d ae5d 7cbd a886 5e3d 4d7b 783c
00000030: a035 2b3d 63c8 91bc db47 113c 3a33 4b3d
00000040: f2ac 3f3d 45f7 b93c 9eee 803d e5c9 adbc
00000050: d82f 8b3d 1c78 54bd 1549 2b3d fbff 12bd
00000060: 75b8 653d 627b 1e3d 0d10 88bd f32b 2dbd
00000070: 8fab 7d3d 24e3 8d3d e29f 5d3c 47dc 873d
00000080: 33a0 67bc 164f 063d c085 113d 89ef 1a3d
00000090: eae8 00bd efba cb3c ae95 6a3c 5ca8 4f3d
000000a0: 246e d53c fbb6 223d b332 173b 4805 c8bc
000000b0: 9a51 693d 2aa0 2f3d 159e 383c db24 b2bc
000000c0: 6b29 5b3d 9053 29bd f5ce 883d cd5b a9bc
000000d0: cf72 f43c 335d fabc 6b25 94bd abf1 22bc
000000e0: beaa fa3c 3553 2a3d 6b5a 223d a449 b4ba
000000f0: b556 27bd a642 5c3d 0b68 873c 8832 f83c
00000100: 0880 85bc 96d9 89bd 8da3 5d3d dcb2 893b
00000110: 3117 7ebd 4655 643d e07f 80bc 80e1 07bd
00000120: a0f8 e43c ba18 5cbd 6b6f 5c3d 9b80 7a3d
00000130: f411 483d c0ab 9dbc 3d74 febc 86cd 313d
00000140: 0137 f23c 2d83 783d d5eb 043d 85eb a1bc
00000150: 8051 16bd 2071 1b3d 962c ac3c 2423 863b
00000160: e64a 653d d553 4a3d f0b5 80bd 4ebb 3b3d
00000170: 5415 103d 7d6a 813d 90b5 8a3c 3c48 8b3d
00000180: 8ef9 47bc 51e6 bebd d8aa 0ebc bbde 393b
00000190: 36b0 69bc 500b 443d 8593 763d fe34 5abc
000001a0: 6b8d 163c 7f8c 8e3c 4b4e 673d 0dea d43c
000001b0: b05a 523d e236 5cbd 08f7 243d 51a1 e538
000001c0: 8fa9 673d c493 97bd 1b91 fd3b 4780 7a3d
000001d0: 8042 933c 1a8e 6e3d bddd 6cbb ff56 343d
000001e0: 6ba6 673d 7d79 863d fc5e d1bc 8a94 773d
000001f0: 1014 703d f9d7 6ebc af1a 103d a30c 0fbd

network_body._body_endoder.seq_layers.2.weight f4 [128, 128]
-0.08897062 0.24079508 0.06819053 -0.042340074 -0.004963001 -0.07188823 -0.026374824 -0.2502354
0.07394221 -0.18088336 0.19359893 -0.10545048 0.06730872 -0.21239878 -0.162322 0.029025167
-0.025068017 -0.07028835 0.02687713 0.10546149 0.16963531 -0.042781737 -0.028981825 0.092447035
-0.10942333 0.019023182 -0.045854595 0.00074230455 -0.042830803 -0.06281022 0.2049477 0.13674866
-0.11603738 -0.115491144 -0.016425686 0.008555498 -0.09026406 -0.066097446 -0.013498274 0.071540274
-0.1108152 0.090331435 -0.09224915 -0.05460852 0.23900312 0.097855315 -0.04960365 0.10428784
-0.06109258 0.06319153 -0.13510297 -0.14328466 0.019149961 -0.1122153 0.03561275 0.13058928
0.09648358 0.016477428 0.046315424 0.06637685 0.029429104 -0.086551525 0.20605133 0.17257361
-0.089588165 0.017878808 -0.0042185267 -0.12995322 -0.11551209 0.1226081 -0.014722904 0.16360652
-0.017069267 0.120758325 -0.02419675 0.18225035 0.03862484 -0.17072643 0.05228233 0.052001905
-0.05932627 -0.09380572 -0.015879193 0.024788301 -0.12884103 0.19489385 0.13001701 -0.011468338
-0.014159409 0.17079125 -0.018434092 -0.020213393 -0.07852137 0.043367155 0.03380143 0.047489364
0.07977254 -0.08250546 -0.009939268 0.17615253 0.06431781 0.11444752 0.09763191 -0.15349142
0.00838224 -0.08396103 -0.044707585 -0.08845054 -0.09214673 -0.012437403 0.04984754 -0.10482412
-0.088854894 0.006491084 -0.17220798 0.023283664 -0.0051433267 0.06512765 -0.040250015 0.08122285
0.1339829 -0.021047298 0.033883724 -0.06452295 -0.10861374 0.022614261 -0.06441926 0.12834966
0.06923887 0.010604387 -0.068362184 -0.015862597 -0.0395898 0.07197249 -0.012603597 -0.0121091055
0.012861284 -0.18942766 -0.004267246 0.033330213 -0.06581342 0.091786385 -0.0802115 0.00822547
0.0027643638 -0.057308935 0.10395022 0.11819862 0.023357 -0.06378844 0.0915421 0.03324119
0.028598271 0.04823558 0.03941164 0.17155242 0.12837924 0.3379839 -0.03258056 0.009624528
0.05405391 0.1306126 0.15130596 -0.10657984 0.10427768 0.10157457 0.018772693 -0.09906127
0.067028135 -0.016554486 -0.035478085 -0.055000927 0.05325348 0.10132776 0.11786301 -0.027606048
0.013080538 -0.034989405 -0.13367468 0.049710277 0.026178444 -0.018806942 -0.053292997 -0.15742823
0.11076199 -0.14384763 0.12999071 0.025282504 0.035305053 0.06164933 -0.23890428 0.090713754
-0.046165638 0.026987616 -0.05700847 -0.02372968 -0.18200526 -0.0055958317 -0.021285616 0.01434162
-0.076516256 0.014608344 -0.042735714 0.26958436 -0.061463885 0.12869152 0.059324257 0.05364101
0.07314856 0.12892023 0.1209427 -0.089010306 0.11604415 -0.045752916 -0.18153359 0.042256963
0.209059 -0.0968649 0.011342831 0.097058155 -0.15299824 -0.12646924 0.07235187 0.082533695
-0.014008096 -0.001792744 0.042014297 -0.029872015 0.1145778 -0.05526967 -0.14545216 -0.2501948
-0.08083538 -0.082065225 -0.06979751 0.12091453 -0.15714136 -0.036268294 -0.04478423 0.078314476
-0.05162615 -0.021995576 0.20048524 -0.041134104 0.00976063 -0.03398321 0.14683594 -0.0388476
0.09403559 0.01030032 0.064673476 0.20158468 -0.08052189 -0.04662119 -0.07748784 0.21393332
00000000: 3a36 b6bd fc92 763e 7aa7 8b3d c96c 2dbd
00000010: aba0 a2bb 233a 93bd 0410 d8bc db1e 80be
00000020: 036f 973d 7d39 39be cc3e 463e 6cf6 d7bd
00000030: 27d9 893d 117f 59be bd37 26be 30c6 ed3c
00000040: 715b cdbc 57f3 8fbd 6d2d dc3c 32fc d73d
00000050: e1b4 2d3e e73b 2fbd 4b6b edbc df54 bd3d
00000060: 5719 e0bd 81d6 9b3c 07d2 3bbd 3797 423a
00000070: 5a6f 2fbd a5a2 80bd cfdd 513e d707 0c3e
00000080: 02a5 edbd 9f86 ecbd 298f 86bc 5c2c 0c3c
00000090: 5ddc b8bd 195e 87bd dd27 5dbc b583 923d
000000a0: 14f3 e2bd b0ff b83d 1fed bcbd 2fad 5fbd
000000b0: 3cbd 743e 5e68 c83d 322d 4bbd dd94 d53d
000000c0: 373c 7abd 906a 813d 6f58 0abe 37b9 12be
000000d0: 61e0 9c3c 23d1 e5bd adde 113d 32b9 053e
000000e0: 2f99 c53d acfb 863c 3eb5 3d3d 96f0 873d
000000f0: 4e15 f13c ed41 b1bd 1fff 523e 23b7 303e
00000100: 007a b7bd 9476 923c 913b 8abb 7512 05be
00000110: 9a91 ecbd f519 fb3d 5638 71bc 7888 273e
00000120: d9d4 8bbc 2450 f73d 4338 c6bc d69f 3a3e
00000130: 1535 1e3d e9d2 2ebe ff25 563d f3ff 543d
00000140: 1a00 73bd 371d c0bd 1515 82bc d610 cb3c
00000150: e7ee 03be 4192 473e 2e23 053e b2e5 3bbc
00000160: defc 67bc e7e3 2e3e 1803 97bc 8f96 a5bc
00000170: d0cf a0bd c2a1 313d 5e73 0a3d 3584 423d
00000180: c95f a33d 9ff8 a8bd 50d8 22bc 5461 343e
00000190: 0eb9 833d 7663 ea3d 3df3 c73d db2c 1dbe
000001a0: aa55 093c c3f3 abbd 4d1f 37bd 8f25 b5bd
000001b0: 6db7 bcbd 40c6 4bbc ef2c 4c3d 07ae d6bd
000001c0: 8ef9 b5bd 29b3 d43b 4a57 30be 62bd be3c
000001d0: 5a89 a8bb a561 853d 33dd 24bd 2a58 a63d
000001e0: d032 093e 626b acbc a9c9 0a3d 9c24 84bd
000001f0: e170 debd 8b41 b93c 3fee 83bd 186e 033e
00000200: 1ccd 8d3d 06be 2d3c 7901 8cbd 47f2 81bc
00000210: ea28 22bd 5066 933d 517f 4ebc 4565 46bc
00000220: 23b8 523c 53f9 41be 41d4 8bbb 4385 083d
00000230: 30c9 86bd 80fa bb3d ed45 a4bd 1fc4 063c
00000240: 542a 353b c6bc 6abd dae3 d43d 1e12 f23d
00000250: 2e57 bf3c 83a3 82bd 6d7a bb3d ea27 083d
00000260: ec46 ea3c ac92 453d 1a6e 213d 70ab 2f3e
00000270: d975 033e 3a0c ad3e 3173 05bd 32b0 1d3c
00000280: a267 5d3d 4fbf 053e f3ef 1a3e 8846 dabd
00000290: 898f d53d 5406 d03d 31c9 993c a3e0 cabd
000002a0: 0c46 893d 469d 87bc 7851 11bd a748 61bd
000002b0: 5220 5a3d ee84 cf3d 2962 f13d 1426 e2bc
000002c0: c14f 563c 0d51 0fbd 04e2 08be 019d 4b3d
000002d0: 2d74 d63c 0411 9abc c249 5abd de34 21be
000002e0: 2fd7 e23d cb4c 13be 491c 053e 411d cf3c
000002f0: 089c 103d 0284 7c3d 53a3 74be 22c8 b93d
00000300: 2e18 3dbd 2215 dd3c b781 69bd bf64 c2bc
00000310: 965f 3abe 3d5d b7bb 2c5f aebc 1df9 6a3c
00000320: 8eb4 9cbd d657 6f3c a50b 2fbd f606 8a3e
00000330: 8ec1 7bbd b6c7 033e fefd 723d adb6 5b3d
00000340: eace 953d aa03 043e ceb0 f73d 094b b6bd
00000350: 8ea8 ed3d 6967 3bbd f1e3 39be a315 2d3d
00000360: 9013 563e 1b61 c6bd 48d7 393c 6dc6 c63d
00000370: 92ab 1cbe 2781 01be 382d 943d 6d07 a93d
00000380: 3782 65bc 82fa eaba 2f17 2c3d 28b6 f4bc
00000390: c4a7 ea3d 7362 62bd 69f1 14be 8819 80be
000003a0: 058d a5bd d011 a8bd fff1 8ebd 09a2 f73d
000003b0: aae9 20be 108e 14bd ab6f 37bd 5763 a03d
000003c0: f175 53bd 1130 b4bc 014c 4d3e 3c7c 28bd
000003d0: 0deb 1f3c fa31 0bbd 295c 163e a91e 1fbd
000003e0: bb95 c03d acc2 283c 8773 843d 376c 4e3e
000003f0: a9e8 a4bd dcf5 3ebd f2b1 9ebd 5611 5b3e

network_body._body_endoder.seq_layers.2.bias f4 [128]
0.033656016 0.019273382 0.053971317 0.027978841 0.022652414 0.07298444 -0.03799227 0.011130736
-0.012745109 -0.03785748 -0.014934889 -0.021030875 0.056086276 0.011760788 0.05538282 0.048335712
0.0017669076 0.0333122 -0.061667994 -0.016682986 0.043532938 0.048228692 0.036716938 0.052586608
-0.037174445 0.051719133 -0.03190516 0.028237874 -0.05037046 -0.0023978609 0.040669356 -0.007683447
-0.044945713 -0.016862018 -0.046932675 0.06337458 -0.04314623 0.045551248 0.037311897 0.066411436
0.07025297 0.057567853 -0.051542267 -0.06328615 0.03045732 0.07359814 0.012890468 0.05338703
-0.045582104 0.033240706 0.06969438 -0.0005871313 0.032535635 0.021466587 0.036374398 0.045321833
-0.024474284 0.028263329 -0.07053115 -0.03433032 -0.05039888 0.060912248 0.056508053 0.054489452
0.0556237 0.0036087024 0.0543182 0.07167149 0.049477432 0.04173429 -0.055845663 0.0378426
-0.019223856 0.02538389 0.031997114 0.050043516 0.029517578 -0.04135191 0.058349766 -0.057816684
0.051211797 3.665071e-05 0.059215404 -0.04395348 0.05716293 0.029821787 -0.06378154 -0.06375956
0.041126795 0.020783586 -0.010539089 0.0549774 -0.008424338 0.0040058075 0.009902653 0.064769424
0.059536297 0.058060292 0.008684278 -0.018798752 -0.04851113 -0.06519236 0.037606914 -0.029484166
0.045962654 0.059591006 0.06872291 0.010816146 0.057149723 -0.0062017133 0.041603524 0.060931224
0.060866166 0.04117682 0.06201822 0.005724388 -0.006309026 0.018723173 -0.010927315 0.051960774
-0.054951437 0.0597266 0.016405689 0.072672665 0.07281359 0.032505877 0.05999315 -0.0032616507
00000000: e4da 093d 36e3 9d3c 0711 5d3d e233 e53c
00000010: 8e91 b93c de78 953d c89d 1bbd b15d 363c
00000020: ddd0 50bc 7210 1bbd 77b1 74bc f148 acbc
00000030: b9ba 653d 52b0 403c 19d9 623d abfb 453d
00000040: 9597 e73a 6072 083d 9497 7cbd c2aa 88bc
00000050: 984f 323d 738b 453d 8064 163d 0e65 573d
00000060: 3b44 18bd 71d7 533d fcae 02bd 1d53 e73c
00000070: 4151 4ebd 6e25 1dbb e994 263d 6dc5 fbbb
00000080: ff18 38bd 3722 8abc 7a3c 40bd 88ca 813d
00000090: 1aba 30bd f293 3a3d 5cd4 183d b802 883d
000000a0: cae0 8f3d 45cc 6b3d fc1d 53bd 2b9c 81bd
000000b0: a181 f93c 9fba 963d 8b32 533c 5cac 5a3d
000000c0: 4db4 3abd 6827 083d edbb 8e3d b7e9 19ba
000000d0: 1644 053d b2da af3c 52fd 143d 63a3 393d
000000e0: 4b7e c8bc 7f88 e73c a372 90bd f39d 0cbd
000000f0: 0e6f 4ebd 1f7f 793d fd74 673d 5530 5f3d
00000100: add5 633d fb7f 6c3b c37c 5e3d 81c8 923d
00000110: d9a8 4a3d 93f1 2a3d 6cbe 64bd d800 1b3d
00000120: 597b 9dbc e0f1 cf3c 680f 033d 6efa 4c3d
00000130: d9ce f13c 9f60 29bd 2a00 6f3d 30d1 6cbd
00000140: 76c3 513d 66b9 1938 da8b 723d 9008 34bd
00000150: ad23 6a3d d24c f43c e59f 82bd 5f94 82bd
00000160: 9274 283d 5742 aa3c 25ac 2cbc fb2f 613d
00000170: 3c06 0abc 2643 833b bd3e 223c d5a5 843d
00000180: 55dc 733d a1d0 6d3d 8048 0e3c d7ff 99bc
00000190: 9bb3 46bd 9283 85bd b509 1a3d c788 f1bc
000001a0: 5643 3c3d b315 743d 99be 8c3d 3436 313c
000001b0: d415 6a3d be37 cbbb 7568 2a3d 0593 793d
000001c0: cd4e 793d 06a9 283d d106 7e3d a693 bb3b
000001d0: f2bb cebb 5761 993c 7b08 33bc d2d4 543d
000001e0: c214 61bd e1a3 743d 3965 863c 68d5 943d
000001f0: 4b1f 953d e224 053d 61bb 753d 6bc1 55bb

action_model._continuous_distribution.log_sigma f4 [1, 2]
-0.06300267 -0.03160018
00000000: 8b07 81bd 316f 01bd

action_model._continuous_distribution.mu.weight f4 [2, 128]
0.0035688311 -0.020512935 0.02671286 -0.0052487804 0.013099231 0.07274104 -0.030776758 0.014499891
-0.059336707 -0.025630405 -0.02317707 -3.3200395e-05 0.03175248 0.013605826 0.023894833 0.05520851
-0.022692362 0.016152337 -0.06568404 -0.058066763 0.010478037 0.044462956 0.0518834 0.04207413
-0.018866563 0.045982946 -0.050526723 0.036585342 -0.059192255 -0.029889978 0.009596926 -0.012655775
-0.08341667 -0.010963328 -0.068501465 0.059026554 -0.040983014 0.04194004 0.02508752 0.06179297
0.057794295 0.05522526 -0.09025254 -0.06384716 0.006712962 0.045945752 0.0064605935 0.031486154
-0.07670062 0.018545603 0.04454088 -0.036663543 0.014310764 -0.0033882745 0.034872882 0.025525905
-0.025203204 -0.030660626 -0.062318686 -0.009812273 -0.0648635 0.009037296 0.0539174 0.015442552
0.045328286 -0.021746948 0.056781374 0.030681051 0.019377427 0.032690413 -0.06606373 0.016115008
0.0011574487 0.026658116 0.020834588 0.060010627 -0.009631991 -0.07199095 0.032758676 -0.06788076
0.054056514 -0.040677957 0.044591065 -0.090756774 0.043754715 0.016623836 -0.059427574 -0.064388864
0.0012681042 0.0075921514 -0.037235387 0.02909486 -0.06058565 -0.046978574 0.028581193 0.046477035
0.04115601 0.048324283 -0.03441107 -0.037958197 -0.053593393 -0.036710728 0.0034406811 -0.049339145
0.064327605 0.0611789 0.07841687 0.0077827955 0.044944312 -0.008670741 -0.0109694535 0.058652353
0.03367268 0.040458445 0.06375142 -0.014579476 0.015245072 -0.024587879 -0.03663958 0.01786453
-0.06115998 0.026453335 0.0017550983 0.060904916 0.040928405 0.016383281 0.04284617 0.0037515133
-0.028655982 0.06752223 0.067605734 -0.029054353 -0.059856642 0.02706795 -0.06131688 0.057049237
0.057704892 -0.038820878 -0.04214438 -0.0265876 -0.0022972224 -0.053264074 -0.022158537 -0.024899948
0.07350807 0.064419754 -0.043992024 -0.111644536 0.038881764 0.0055447384 -0.035144836 -0.030176336
-0.025170028 -0.051007573 0.02193346 0.011255482 -0.06968578 0.049506295 0.056869656 -0.053999394
-0.00088197284 -0.033276487 0.01520859 0.041317783 -0.06620599 0.002188421 -0.07119397 -0.00055705314
0.03712205 0.026591105 -0.016614528 0.010768225 -0.056165934 0.059156857 0.040622707 0.029135764
-0.045861084 -0.05239093 0.042012285 0.028869556 -0.057992373 -0.085304216 -0.038934078 -0.024201676
0.024550872 0.07278409 -0.017686194 -0.050651174 -0.043099422 0.07865185 -0.04563345 0.03566523
0.00028520278 -0.076936334 -0.005657917 0.040149022 -0.037546985 -0.065813094 -0.039931633 -0.03208953
-0.031489283 -0.0811389 -0.03690172 -0.06406396 0.06260211 -0.03388946 0.019847522 -0.00041250951
-0.026040398 0.049236044 0.0115715405 -0.0008728852 -0.021984456 -0.067623965 -0.035556234 -0.022768186
-0.033285044 0.059594996 -0.05287638 0.018193565 0.068501785 0.07729955 -0.03423825 0.004675138
-0.051017642 -0.04708997 0.06463723 -0.054602377 -0.0616997 -0.020955836 -0.05170872 0.047578637
-0.043405022 -0.03756788 0.034399346 -0.055850014 -0.042866487 -0.064988755 0.077361636 0.028792916
0.029652707 0.030273495 0.01633771 -0.064727455 -0.04493472 0.08440681 0.055481024 0.03038259
-0.018708086 0.07361233 -0.0692697 0.01733516 0.047824748 -0.066451035 0.012374455 -0.043154377
00000000: 0de3 693b be0a a8bc eed4 da3c f6fd abbb
00000010: 289e 563c 41f9 943d 8a1f fcbc f390 6d3c
00000020: 0c0b 73bd dbf6 d1bc d7dd bdbc a740 0bb8
00000030: e30e 023d f8ea 5e3c 19bf c33c 5222 623d
00000040: 55e5 b9bc e851 843c 5b85 86bd 6ad7 6dbd
00000050: 13ac 2b3c ca1e 363d b083 543d ec55 2c3d
00000060: 0d8e 9abc 9d58 3c3d 1cf5 4ebd 83da 153d
00000070: 9473 72bd d4db f4bc 6d3c 1d3c 2b5a 4fbc
00000080: 5cd6 aabd 889f 33bc 7f4a 8cbd d4c5 713d
00000090: cedd 27bd 52c9 2b3d 5884 cd3c a01a 7d3d
000000a0: b6b9 6c3d e233 623d 53d6 b8bd 4dc2 82bd
000000b0: 68f8 db3b 9d31 3c3d 63b3 d33b a0f7 003d
000000c0: 3715 9dbd f3ec 973c 7f70 363d 832c 16bd
000000d0: b277 6a3c d00d 5ebb ded6 0e3d b41b d13c
000000e0: f376 cebc fe2b fbbc e141 7fbd a8c3 20bc
000000f0: 28d7 84bd 2b11 143c 7ed8 5c3d c202 7d3c
00000100: 27aa 393d a826 b2bc 9693 683d d456 fb3c
00000110: 69bd 9e3c 62e6 053d 6c4c 87bd 9f03 843c
00000120: 89b5 973a 1f62 da3c 4cad aa3c b4cd 753d
00000130: 80cf 1dbc fe6f 93bd f62d 063d 1105 8bbd
00000140: 5d6a 5d3d ee9d 26bd 1fa5 363d b0de b9bd
00000150: 2538 333d b62e 883c 546a 73bd 4fde 83bd
00000160: 8436 a63a 95c7 f83b 2284 18bd 5858 ee3c
00000170: a928 78bd 9b6c 40bd 1b23 ea3c b45e 3e3d
00000180: 3493 283d afef 453d 9ff2 0cbd 0e7a 1bbd
00000190: bf84 5bbd fd5d 16bd 0d7d 613b d817 4abd
000001a0: 31be 833d ba96 7a3d 0699 a03d d206 ff3b
000001b0: 8717 383d b90f 0ebc 39b9 33bc 733d 703d
000001c0: 5dec 093d c1b7 253d 1b90 823d c1de 6ebc
000001d0: 77c6 793c 856c c9bc 6213 16bd a358 923c
000001e0: e382 7abd aab4 d83c 540b e63a 6f77 793d
000001f0: 8ba4 273d 3b36 863c 777f 2f3d f3db 753b
00000200: f3bf eabc 1849 8a3d e074 8a3d 6503 eebc
00000210: 3d2c 75bd 9bbd dd3c 6927 7bbd 76ac 693d
00000220: f75b 6c3d a402 1fbd 969f 2cbd 3dce d9bc
00000230: ff8c 16bb 6e2b 5abd d285 b5bc fafa cbbc
00000240: 668b 963d 81ee 833d fb30 34bd e4a5 e4bd
00000250: 7c42 1f3d a3b0 b53b 08f4 0fbd 5d34 f7bc
00000260: 6031 cebc 51ed 50bd cdad b33c ea68 383c
00000270: 6bb7 8ebd 1dc7 4a3d 28f0 683d 782e 5dbd
00000280: 3234 67ba ed4c 08bd 732d 793c d63c 293d
00000290: 0297 87bd 9d6b 0f3b 25ce 91bd 3407 12ba
000002a0: 4a0d 183d 97d5 d93c 311b 88bc 366d 303c
000002b0: 400e 66bd 764e 723d ff63 263d 20ae ee3c
000002c0: d5d8 3bbd df97 56bd 1315 2c3d d97f ec3c
000002d0: 6989 6dbd fab3 aebd 5779 1fbd 9842 c6bc
000002e0: e91e c93c d30f 953d a3e2 90bc 9b77 4fbd
000002f0: 0589 30bd 3914 a13d 24ea 3abd b415 123d
00000300: 4587 9539 cc90 9dbd 0c66 b9bb 4d73 243d
00000310: deca 19bd 04c9 86bd 5a8f 23bd 5070 03bd
00000320: e8fa 00bd 272c a6bd 4226 17bd f733 83bd
00000330: 8935 803d adcf 0abd 4597 a23c 1746 d8b9
00000340: ac52 d5bc bcab 493d 8f96 3d3c 56d2 64ba
00000350: bf18 b4bc 6f7e 8abd 6aa3 11bd 5984 babc
00000360: e655 08bd e219 743d e794 58bd ac0a 953c
00000370: aa4a 8c3d 3a4f 9e3d 683d 0cbd e631 993b
00000380: e0f7 50bd 6ae1 40bd 8660 843d bea6 5fbd
00000390: d3b8 7cbd 93ab abbc 86cc 53bd d1e1 423d
000003a0: 77c9 31bd c7e0 19bd 54e6 0c3d fcc2 64bd
000003b0: c594 2fbd d318 85bd c76f 9e3d 1fdf eb3c
000003c0: 3cea f23c 1f00 f83c a9d6 853c d48f 84bd
000003d0: 780d 38bd 7add ac3d 1240 633d e9e4 f83c
000003e0: b341 99bc 10c2 963d 46dd 8dbd 7702 8e3c
000003f0: e2e3 433d 7b17 88bd 3abe 4a3c a5c2 30bd

action_model._continuous_distribution.mu.bias f4 [2]
0.06306354 0.017505134
00000000: 7527 813d ed66 8f3c
